…
rough of an example input size  <pre>Collecting torchinfo\n  Downloading torchinfo-1.6.5-py3-none-any.whl (21 kB)\nInstalling collected packages: torchinfo\nSuccessfully installed torchinfo-1.6.5\n</pre> Out[47]: <pre>==========================================================================================\nLayer (type:depth-idx)                   Output Shape              Param #\n==========================================================================================\nTinyVGG                                  --                        --\n\u251c\u2500Sequential: 1-1                        [1, 10, 32, 32]           --\n\u2502    \u2514\u2500Conv2d: 2-1                       [1, 10, 64, 64]           280\n\u2502    \u2514\u2500ReLU: 2-2                         [1, 10, 64, 64]           --\n\u2502    \u2514\u2500Conv2d: 2-3                       [1, 10, 64, 64]           910\n\u2502    \u2514\u2500ReLU: 2-4                         [1, 10, 64, 64]           --\n\u2502    \u2514\u2500MaxPool2d: 2-5                    [1, 10, 32, 32]           --\n\u251c\u2500Sequential: 1-2                        [1, 10, 16, 16]           --\n\u2502    \u2514\u2500Conv2d: 2-6                       [1, 10, 32, 32]           910\n\u2502    \u2514\u2500ReLU: 2-7                         [1, 10, 32, 32]           --\n\u2502    \u2514\u2500Conv2d: 2-8                       [1, 10, 32, 32]           910\n\u2502    \u2514\u2500ReLU: 2-9                         [1, 10, 32, 32]           --\n\u2502    \u2514\u2500MaxPool2d: 2-10                   [1, 10, 16, 16]           --\n\u251c\u2500Sequential: 1-3                        [1, 3]                    --\n\u2502    \u2514\u2500Flatten: 2-11                     [1, 2560]                 --\n\u2502    \u2514\u2500Linear: 2-12                      [1, 3]                    7,683\n==========================================================================================\nTotal params: 10,693\nTrainable params: 10,693\nNon-trainable params: 0\nTotal mult-adds (M): 6.75\n==========================================================================================\nInput size (MB): 0.05\nForward/backward pass size (MB): 0.82\nParams size (MB): 0.04\nEstimated Total Size (MB): 0
…
ams\", \"trainable\"],         col_width=20,         row_settings=[\"var_names\"] )  Out[12]: <pre>============================================================================================================================================\nLayer (type (var_name))                                      Input Shape          Output Shape         Param #              Trainable\n============================================================================================================================================\nEfficientNet (EfficientNet)                                  [32, 3, 224, 224]    [32, 1000]           --                   True\n\u251c\u2500Sequential (features)                                      [32, 3, 224, 224]    [32, 1280, 7, 7]     --                   True\n\u2502    \u2514\u2500Conv2dNormActivation (0)                              [32, 3, 224, 224]    [32, 32, 112, 112]   --                   True\n\u2502    \u2502    \u2514\u2500Conv2d (0)                                       [32, 3, 224, 224]    [32, 32, 112, 112]   864                  True\n\u2502    \u2502    \u2514\u2500BatchNorm2d (1)                                  [32, 32, 112, 112]   [32, 32, 112, 112]   64                   True\n\u2502    \u2502    \u2514\u2500SiLU (2)                                         [32, 32, 112, 112]   [32, 32, 112, 112]   --                   --\n\u2502    \u2514\u2500Sequential (1)                                        [32, 32, 112, 112]   [32, 16, 112, 112]   --                   True\n\u2502    \u2502    \u2514\u2500MBConv (0)                                       [32, 32, 112, 112]   [32, 16, 112, 112]   1,448                True\n\u2502    \u2514\u2500Sequential (2)                                        [32, 16, 112, 112]   [32, 24, 56, 56]     --                   True\n\u2502    \u2502    \u2514\u2500MBConv (0)                                       [32, 16, 112, 112]   [32, 24, 56, 56]     6,004                True\n\u2502    \u2502    \u2514\u2500MBConv (1)                                       [32, 24, 56, 56]     [32, 24, 56, 56]     10,710               True\n\u2502    \u2514\u2500Sequential (3)                                        [32, 24, 56, 56]     [32, 40, 28, 28]     --                   True\n\u2502    \u2502    \u2514\u2500MBConv (0)                                       [32, 24, 56, 56]     [32, 40, 28, 28]     15,350               True\n\u2502    \u2502    \u2514\u2500MBConv (1)                                       [32, 40, 28, 28]     [32, 40, 28, 28]     31,290               True\n\u2502    \u2514\u2500Sequential (4)                                        [32, 40, 28, 28]     [32, 80, 14, 14]     --                   True\n\u2502    \u2502    \u2514\u2500MBConv (0)                                       [32, 40, 28, 28]     [32, 80, 14, 14]     37,130               True\n\u2502    \u2502    \u2514\u2500MBConv (1)                                       [32, 80, 14, 14]     [32, 80, 14, 14]     102,900              True\n\u2502    \u2502    \u2514\u2500MBConv (2)                                       [32, 80, 14, 14]     [32, 80, 14, 14]     102,900              True\n\u2502    \u2514\u2500Sequential (5)                                        [32, 80, 14, 14]     [32, 112, 14, 14]    --                   True\n\u2502    \u2502    \u2514\u2500MBConv (0)                                       [32, 80, 14, 14]     [32, 112, 14, 14]    126,004              True\n\u2502    \u2502    \u2514\u2500MBConv (1)                                       [32, 112, 14, 14]    [32, 112, 14, 14]    208,572              True\n\u2502    \u2502    \u2514\u2500MBConv (2)                                       [32, 112, 14, 14]    [32, 112, 14, 14]    208,572              True\n\u2502    \u2514\u2500Sequential (6)                                        [32, 112, 14, 14]    [32, 192, 7, 7]      --                   True\n\u2502    \u2502    \u2514\u2500MBConv (0)                                       [32, 112, 14, 14]    [32, 192, 7, 7]      262,492              True\n\u2502    \u2502    \u2514\u2500MBConv (1)                                       [32, 192, 7, 7]      [32, 192, 7, 7]      587,952              True\n\u2502    \u2502    \u2514\u2500MBConv (2)                                       [32, 192, 7, 7]      [32, 192, 7, 7]      587,952              True\n\u2502    \u2502    \u2514\u2500MBConv (3)                                       [32, 192, 7, 7]      [32, 192, 7, 7]      587,952              True\n\u2502    \u2514\u2500Sequential (7)                                        [32, 192, 7, 7]      [32, 320, 7, 7]      --                   True\n\u2502    \u2502    \u2514\u2500MBConv (0)                                       [32, 192, 7, 7]      [32, 320, 7, 7]      717,232              True\n\u2502    \u2514\u2500Conv2dNormActivation (8)                              [32, 320, 7, 7]      [32, 1280, 7, 7]     --                   True\n\u2502    \u2502    \u2514\u2500Conv2d (0)                                       [32, 320, 7, 7]      [32, 1280, 7, 7]     409,600              True\n\u2502    \u2502    \u2514\u2500BatchNorm2d (1)                                  [32, 1280, 7, 7]     [32, 1280, 7, 7]     2,560                True\n\u2502    \u2502    \u2514\u2500SiLU (2)                                         [32, 1280, 7, 7]     [32, 1280, 7, 7]     --                   --\n\u251c\u2500AdaptiveAvgPool2d (avgpool)                                [32, 1280, 7, 7]     [32, 1280, 1, 1]     --                   --\n\u251c\u2500Sequential (classifier)                                    [32, 1280]           [32, 1000]           --                   True\n\u2502    \u2514\u2500Dropout (0)                                           [32, 1280]           [32, 1280]           --                   --\n\u2502    \u2514\u2500Linear (1)                                            [32, 1280]           [32, 1000]           1,281,000            True\n============================================================================================================================================\nTotal params: 5,288,548\nTrainable params: 5,288,548\nNon-trainable params: 0\nTotal mult-adds (G): 12.35\n=====================================================================================================================================
…
rams\", \"trainable\"],         col_width=20,         row_settings=[\"var_names\"] ) Out[15]: <pre>============================================================================================================================================\nLayer (type (var_name))                                      Input Shape          Output Shape         Param #              Trainable\n============================================================================================================================================\nEfficientNet (EfficientNet)                                  [32, 3, 224, 224]    [32, 3]              --                   Partial\n\u251c\u2500Sequential (features)                                      [32, 3, 224, 224]    [32, 1280, 7, 7]     --                   False\n\u2502    \u2514\u2500Conv2dNormActivation (0)                              [32, 3, 224, 224]    [32, 32, 112, 112]   --                   False\n\u2502    \u2502    \u2514\u2500Conv2d (0)                                       [32, 3, 224, 224]    [32, 32, 112, 112]   (864)                False\n\u2502    \u2502    \u2514\u2500BatchNorm2d (1)                                  [32, 32, 112, 112]   [32, 32, 112, 112]   (64)                 False\n\u2502    \u2502    \u2514\u2500SiLU (2)                                         [32, 32, 112, 112]   [32, 32, 112, 112]   --                   --\n\u2502    \u2514\u2500Sequential (1)                                        [32, 32, 112, 112]   [32, 16, 112, 112]   --                   False\n\u2502    \u2502    \u2514\u2500MBConv (0)                                       [32, 32, 112, 112]   [32, 16, 112, 112]   (1,448)              False\n\u2502    \u2514\u2500Sequential (2)                                        [32, 16, 112, 112]   [32, 24, 56, 56]     --                   False\n\u2502    \u2502    \u2514\u2500MBConv (0)                                       [32, 16, 112, 112]   [32, 24, 56, 56]     (6,004)              False\n\u2502    \u2502    \u2514\u2500MBConv (1)                                       [32, 24, 56, 56]     [32, 24, 56, 56]     (10,710)             False\n\u2502    \u2514\u2500Sequential (3)                                        [32, 24, 56, 56]     [32, 40, 28, 28]     --                   False\n\u2502    \u2502    \u2514\u2500MBConv (0)                                       [32, 24, 56, 56]     [32, 40, 28, 28]     (15,350)             False\n\u2502    \u2502    \u2514\u2500MBConv (1)                                       [32, 40, 28, 28]     [32, 40, 28, 28]     (31,290)             False\n\u2502    \u2514\u2500Sequential (4)                                        [32, 40, 28, 28]     [32, 80, 14, 14]     --                   False\n\u2502    \u2502    \u2514\u2500MBConv (0)                                       [32, 40, 28, 28]     [32, 80, 14, 14]     (37,130)             False\n\u2502    \u2502    \u2514\u2500MBConv (1)                                       [32, 80, 14, 14]     [32, 80, 14, 14]     (102,900)            False\n\u2502    \u2502    \u2514\u2500MBConv (2)                                       [32, 80, 14, 14]     [32, 80, 14, 14]     (102,900)            False\n\u2502    \u2514\u2500Sequential (5)                                        [32, 80, 14, 14]     [32, 112, 14, 14]    --                   False\n\u2502    \u2502    \u2514\u2500MBConv (0)                                       [32, 80, 14, 14]     [32, 112, 14, 14]    (126,004)            False\n\u2502    \u2502    \u2514\u2500MBConv (1)                                       [32, 112, 14, 14]    [32, 112, 14, 14]    (208,572)            False\n\u2502    \u2502    \u2514\u2500MBConv (2)                                       [32, 112, 14, 14]    [32, 112, 14, 14]    (208,572)            False\n\u2502    \u2514\u2500Sequential (6)                                        [32, 112, 14, 14]    [32, 192, 7, 7]      --                   False\n\u2502    \u2502    \u2514\u2500MBConv (0)                                       [32, 112, 14, 14]    [32, 192, 7, 7]      (262,492)            False\n\u2502    \u2502    \u2514\u2500MBConv (1)                                       [32, 192, 7, 7]      [32, 192, 7, 7]      (587,952)            False\n\u2502    \u2502    \u2514\u2500MBConv (2)                                       [32, 192, 7, 7]      [32, 192, 7, 7]      (587,952)            False\n\u2502    \u2502    \u2514\u2500MBConv (3)                                       [32, 192, 7, 7]      [32, 192, 7, 7]      (587,952)            False\n\u2502    \u2514\u2500Sequential (7)                                        [32, 192, 7, 7]      [32, 320, 7, 7]      --                   False\n\u2502    \u2502    \u2514\u2500MBConv (0)                                       [32, 192, 7, 7]      [32, 320, 7, 7]      (717,232)            False\n\u2502    \u2514\u2500Conv2dNormActivation (8)                              [32, 320, 7, 7]      [32, 1280, 7, 7]     --                   False\n\u2502    \u2502    \u2514\u2500Conv2d (0)                                       [32, 320, 7, 7]      [32, 1280, 7, 7]     (409,600)            False\n\u2502    \u2502    \u2514\u2500BatchNorm2d (1)                                  [32, 1280, 7, 7]     [32, 1280, 7, 7]     (2,560)              False\n\u2502    \u2502    \u2514\u2500SiLU (2)                                         [32, 1280, 7, 7]     [32, 1280, 7, 7]     --                   --\n\u251c\u2500AdaptiveAvgPool2d (avgpool)                                [32, 1280, 7, 7]     [32, 1280, 1, 1]     --                   --\n\u251c\u2500Sequential (classifier)                                    [32, 1280]           [32, 3]              --                   True\n\u2502    \u2514\u2500Dropout (0)                                           [32, 1280]           [32, 1280]           --                   --\n\u2502    \u2514\u2500Linear (1)                                            [32, 1280]           [32, 3]              3,843                True\n============================================================================================================================================\nTotal params: 4,011,391\nTrainable params: 3,843\nNon-trainable params: 4,007,548\nTotal mult-adds (G): 12.31\n=============================================================================================================================
…
h=20,         row_settings=[\"var_names\"] ) Out[45]: <pre>======================================================================================================================================================\nLayer (type (var_name))                                                Input Shape          Output Shape         Param #              Trainable\n======================================================================================================================================================\nViT (ViT)                                                              [128, 3, 224, 224]   [128, 3]             152,064              True\n\u251c\u2500Dropout (embedding_dropout)                                          [128, 197, 768]      [128, 197, 768]      --                   --\n\u251c\u2500PatchEmbedding (patch_embedding)                                     [128, 3, 224, 224]   [128, 196, 768]      --                   True\n\u2502    \u2514\u2500Conv2d (patcher)                                                [128, 3, 224, 224]   [128, 768, 14, 14]   590,592              True\n\u2502    \u2514\u2500Flatten (flatten)                                               [128, 768, 14, 14]   [128, 768, 196]      --                   --\n\u251c\u2500Dropout (embedding_dropout)                                          [128, 197, 768]      [128, 197, 768]      --                   --\n\u251c\u2500Sequential (transformer_enedoder)                                    [128, 197, 768]      [128, 197, 768]      --                   True\n\u2502    \u2514\u2500TransformerEncoderBlock (0)                                     [128, 197, 768]      [128, 197, 768]      --                   True\n\u2502    \u2502    \u2514\u2500MultiheadSelfAttentionBlock (msa_block)                    [128, 197, 768]      [128, 197, 768]      2,363,904            True\n\u2502    \u2502    \u2514\u2500MLPBlock (mlp_block)                                       [128, 197, 768]      [128, 197, 768]      4,723,968            True\n\u2502    \u2514\u2500TransformerEncoderBlock (1)                                     [128, 197, 768]      [128, 197, 768]      --                   True\n\u2502    \u2502    \u2514\u2500MultiheadSelfAttentionBlock (msa_block)                    [128, 197, 768]      [128, 197, 768]      2,363,904            True\n\u2502    \u2502    \u2514\u2500MLPBlock (mlp_block)                                       [128, 197, 768]      [128, 197, 768]      4,723,968            True\n\u2502    \u2514\u2500TransformerEncoderBlock (2)                                     [128, 197, 768]      [128, 197, 768]      --                   True\n\u2502    \u2502    \u2514\u2500MultiheadSelfAttentionBlock (msa_block)                    [128, 197, 768]      [128, 197, 768]      2,363,904            True\n\u2502    \u2502    \u2514\u2500MLPBlock (mlp_block)                                       [128, 197, 768]      [128, 197, 768]      4,723,968            True\n\u2502    \u2514\u2500TransformerEncoderBlock (3)                                     [128, 197, 768]      [128, 197, 768]      --                   True\n\u2502    \u2502    \u2514\u2500MultiheadSelfAttentionBlock (msa_block)                    [128, 197, 768]      [128, 197, 768]      2,363,904            True\n\u2502    \u2502    \u2514\u2500MLPBlock (mlp_block)                                       [128, 197, 768]      [128, 197, 768]      4,723,968            True\n\u2502    \u2514\u2500TransformerEncoderBlock (4)                                     [128, 197, 768]      [128, 197, 768]      --                   True\n\u2502    \u2502    \u2514\u2500MultiheadSelfAttentionBlock (msa_block)                    [128, 197, 768]      [128, 197, 768]      2,363,904            True\n\u2502    \u2502    \u2514\u2500MLPBlock (mlp_block)                                       [128, 197, 768]      [128, 197, 768]      4,723,968            True\n\u2502    \u2514\u2500TransformerEncoderBlock (5)                                     [128, 197, 768]      [128, 197, 768]      --                   True\n\u2502    \u2502    \u2514\u2500MultiheadSelfAttentionBlock (msa_block)                    [128, 197, 768]      [128, 197, 768]      2,363,904            True\n\u2502    \u2502    \u2514\u2500MLPBlock (mlp_block)                                       [128, 197, 768]      [128, 197, 768]      4,723,968            True\n\u2502    \u2514\u2500TransformerEncoderBlock (6)                                     [128, 197, 768]      [128, 197, 768]      --                   True\n\u2502    \u2502    \u2514\u2500MultiheadSelfAttentionBlock (msa_block)                    [128, 197, 768]      [128, 197, 768]      2,363,904            True\n\u2502    \u2502    \u2514\u2500MLPBlock (mlp_block)                                       [128, 197, 768]      [128, 197, 768]      4,723,968            True\n\u2502    \u2514\u2500TransformerEncoderBlock (7)                                     [128, 197, 768]      [128, 197, 768]      --                   True\n\u2502    \u2502    \u2514\u2500MultiheadSelfAttentionBlock (msa_block)                    [128, 197, 768]      [128, 197, 768]      2,363,904            True\n\u2502    \u2502    \u2514\u2500MLPBlock (mlp_block)                                       [128, 197, 768]      [128, 197, 768]      4,723,968            True\n\u2502    \u2514\u2500TransformerEncoderBlock (8)                                     [128, 197, 768]      [128, 197, 768]      --                   True\n\u2502    \u2502    \u2514\u2500MultiheadSelfAttentionBlock (msa_block)                    [128, 197, 768]      [128, 197, 768]      2,363,904            True\n\u2502    \u2502    \u2514\u2500MLPBlock (mlp_block)                                       [128, 197, 768]      [128, 197, 768]      4,723,968            True\n\u2502    \u2514\u2500TransformerEncoderBlock (9)                                     [128, 197, 768]      [128, 197, 768]      --                   True\n\u2502    \u2502    \u2514\u2500MultiheadSelfAttentionBlock (msa_block)                    [128, 197, 768]      [128, 197, 768]      2,363,904            True\n\u2502    \u2502    \u2514\u2500MLPBlock (mlp_block)                                       [128, 197, 768]      [128, 197, 768]      4,723,968            True\n\u2502    \u2514\u2500TransformerEncoderBlock (10)                                    [128, 197, 768]      [128, 197, 768]      --                   True\n\u2502    \u2502    \u2514\u2500MultiheadSelfAttentionBlock (msa_block)                    [128, 197, 768]      [128, 197, 768]      2,363,904            True\n\u2502    \u2502    \u2514\u2500MLPBlock (mlp_block)                                       [128, 197, 768]      [128, 197, 768]      4,723,968            True\n\u2502    \u2514\u2500TransformerEncoderBlock (11)                                    [128, 197, 768]      [128, 197, 768]      --                   True\n\u2502    \u2502    \u2514\u2500MultiheadSelfAttentionBlock (msa_block)                    [128, 197, 768]      [128, 197, 768]      2,363,904            True\n\u2502    \u2502    \u2514\u2500MLPBlock (mlp_block)                                       [128, 197, 768]      [128, 197, 768]      4,723,968            True\n\u251c\u2500Sequential (classifier)                                              [128, 768]           [128, 3]             --                   True\n\u2502    \u2514\u2500LayerNorm (0)                                                   [128, 768]           [128, 768]           1,536                True\n\u2502    \u2514\u2500Linear (1)                                                      [128, 768]           [128, 3]             2,307                True\n======================================================================================================================================================\nTotal params: 85,800,963\nTrainable params: 85,800,963\nNon-trainable params: 0\nTotal mult-adds (G): 22.08\n=====================================================================================================================
…
